…
    value: 'Dict(''achieved_goal'': Box(-10.0, 10.0, (3,), float32), ''desired_goal'': Box(-10.0, 10.0, (3,), float32), ''observation'': Box(-10.0, 10.0, (19,), float32))'
optimize_memory_usage:
    value: "False"
policy:
    value: |-
        MultiInputPolicy(
          (q_net): QNetwork(
            (features_extractor): CombinedExtractor(
              (extractors): ModuleDict(
                (achieved_goal): Flatten(start_dim=1, end_dim=-1)
                (desired_goal): Flatten(start_dim=1, end_dim=-1)
                (observation): Flatten(start_dim=1, end_dim=-1)
              )
            )
            (q_net): Sequential(
              (0): Linear(in_features=25, out_features=64, bias=True)
              (1): ReLU()
              (2): Linear(in_features=64, out_features=64, bias=True)
              (3): ReLU()
              (4): Linear(in_features=64, out_features=4, bias=True)
            )
          )
          (q_net_target): QNetwork(
            (features_extractor): CombinedExtractor(
              (extractors): ModuleDict(
                (achieved_goal): Flatten(start_dim=1, end_dim=-1)
                (desired_goal): Flatten(start_dim=1, end_dim=-1)
                (observation): Flatten(start_dim=1, end_dim=-1)
              )
            )
            (q_net): Sequential(
              (0): Linear(in_features=25, out_features=64, bias=True)
              (1): ReLU()
              (2): Linear(in_features=64, out_features=64, bias=True)
              (3): ReLU()
              (4): Linear(in_features=64, out_features=4, bias=True)
            )
          )
        )
policy_class:
    value: <class 'stable_baselines3.dqn.policies.MultiInputPolicy'>
policy_kwargs:
    value: '{}'
policy_type:
    value: MultiInputPolicy
q_net:
    value: |-
        QNetwork(
          (features_extractor): CombinedExtractor(
            (extractors): ModuleDict(
              (achieved_goal): Flatten(start_dim=1, end_dim=-1)
              (desired_goal): Flatten(start_dim=1, end_dim=-1)
              (observation): Flatten(start_dim=1, end_dim=-1)
            )
          )
          (q_net): Sequential(
            (0): Linear(in_features=25, out_features=64, bias=True)
            (1): ReLU()
            (2): Linear(in_features=64, out_features=64, bias=True)
            (3): ReLU()
            (4): Linear(in_features=64, out_features=4, bias=True)
          )
        )
q_net_target:
    value: |-
        QNetwork(
          (features_extractor): CombinedExtractor(
            (extractors): ModuleDict(
              (achieved_goal): Flatten(start_dim=1, end_dim=-1)
              (desired_goal): Flatten(start_dim=1, end_dim=-1)
              (observation): Flatten(start_dim=1, end_dim=-1)
            )
          )
          (q_net): Sequential(
            (0): Linear(in_features=25, out_features=64, bias=True)
            (1): ReLU()
            (2): Linear(in_features=64, out_features=64, bias=True)
            (3): ReLU()
            (4): Linear(in_features=64, out_features=4, bias=True)
          )
        )
replay_buffer:
    value: <stable_baselines3.common.buffers.DictReplayBuffer object at 0x78dfbdd63b50>
replay_buffer_class:
    value: <class 'stable_baselines3.common.buffers.DictReplayBuffer'>
replay_buffer_kwargs:
    value: '{}'
sde_sample_freq:
    value: -1
seed:
    value: None
start_time:
    value: 1734726661213498520
target_update_interval:
…
