…
            "4": 3.10.16
            "5": 0.19.0
            "8":
                - 5
            "12": 0.19.0
            "13": linux-x86_64
action_noise:
    value: None
action_space:
    value: Box(-1.0, 1.0, (4,), float32)
actor:
    value: |-
        Actor(
          (features_extractor): CombinedExtractor(
            (extractors): ModuleDict(
              (achieved_goal): Flatten(start_dim=1, end_dim=-1)
              (desired_goal): Flatten(start_dim=1, end_dim=-1)
              (observation): Flatten(start_dim=1, end_dim=-1)
            )
          )
          (mu): Sequential(
            (0): Linear(in_features=79, out_features=256, bias=True)
            (1): ReLU()
            (2): Linear(in_features=256, out_features=256, bias=True)
            (3): ReLU()
            (4): Linear(in_features=256, out_features=256, bias=True)
            (5): ReLU()
            (6): Linear(in_features=256, out_features=4, bias=True)
            (7): Tanh()
          )
        )
actor_batch_norm_stats:
    value: '[]'
actor_batch_norm_stats_target:
    value: '[]'
actor_target:
    value: |-
        Actor(
          (features_extractor): CombinedExtractor(
            (extractors): ModuleDict(
              (achieved_goal): Flatten(start_dim=1, end_dim=-1)
              (desired_goal): Flatten(start_dim=1, end_dim=-1)
              (observation): Flatten(start_dim=1, end_dim=-1)
            )
          )
          (mu): Sequential(
            (0): Linear(in_features=79, out_features=256, bias=True)
            (1): ReLU()
            (2): Linear(in_features=256, out_features=256, bias=True)
            (3): ReLU()
            (4): Linear(in_features=256, out_features=256, bias=True)
            (5): ReLU()
            (6): Linear(in_features=256, out_features=4, bias=True)
            (7): Tanh()
          )
        )
algo:
    value: DDPG
batch_size:
    value: 256
buffer_size:
    value: 1000000
critic:
    value: |-
        ContinuousCritic(
          (features_extractor): CombinedExtractor(
            (extractors): ModuleDict(
              (achieved_goal): Flatten(start_dim=1, end_dim=-1)
              (desired_goal): Flatten(start_dim=1, end_dim=-1)
              (observation): Flatten(start_dim=1, end_dim=-1)
            )
          )
          (qf0): Sequential(
            (0): Linear(in_features=83, out_features=256, bias=True)
            (1): ReLU()
            (2): Linear(in_features=256, out_features=256, bias=True)
            (3): ReLU()
            (4): Linear(in_features=256, out_features=256, bias=True)
            (5): ReLU()
            (6): Linear(in_features=256, out_features=1, bias=True)
          )
        )
critic_batch_norm_stats:
    value: '[]'
critic_batch_norm_stats_target:
    value: '[]'
critic_target:
    value: |-
        ContinuousCritic(
          (features_extractor): CombinedExtractor(
            (extractors): ModuleDict(
              (achieved_goal): Flatten(start_dim=1, end_dim=-1)
              (desired_goal): Flatten(start_dim=1, end_dim=-1)
              (observation): Flatten(start_dim=1, end_dim=-1)
            )
          )
          (qf0): Sequential(
            (0): Linear(in_features=83, out_features=256, bias=True)
            (1): ReLU()
            (2): Linear(in_features=256, out_features=256, bias=True)
            (3): ReLU()
            (4): Linear(in_features=256, out_features=256, bias=True)
            (5): ReLU()
            (6): Linear(in_features=256, out_features=1, bias=True)
          )
        )
device:
    value: cuda
env:
    value: <stable_baselines3.common.vec_env.vec_video_recorder.VecVideoRecorder object at 0x75bf3d786f80>
env_name:
    value: JengaTower-v3
ep_info_buffer:
    value: deque([], maxlen=100)
ep_success_buffer:
    value: deque([], maxlen=100)
gamma:
    value: 0.99
gradient_steps:
    value: 1
learning_rate:
…
